60min/cifar_net.pth (torch, 251282 bytes, 10 tensors)

conv1.weight f4 [6, 3, 5, 5]
-0.103117935 -0.08964094 -0.17243522 -0.005077527 0.06642441 -0.06581039 0.01520295 0.023982225
-0.04055897 -0.06261775 -0.08465355 0.11898008 0.094038285 -0.10426741 -0.032199547 0.029933726
0.07650707 -0.10608915 -0.0026606987 -0.10627049 -0.0673463 0.12044705 -0.06747408 -0.005678102
-0.07088869 -0.13911724 -0.10093579 0.07085586 0.11473965 -0.019915044 -0.07312789 -0.14585303
0.008904057 0.097889364 0.047691785 -0.0513468 -0.08862114 0.077934176 0.11821788 -0.03605688
-0.029799601 0.09406591 -0.0016545561 0.03806903 -0.022482976 0.02813294 -0.052640382 -0.08423647
-0.13475569 -0.13627477 -0.013278167 0.19052692 0.2751428 0.32889003 0.3038429 0.08229897
0.16834985 0.26471907 0.26557705 0.17752835 0.18449101 0.14084065 0.06403523 0.094951116
0.14577365 0.068556905 0.053715594 0.1996945 0.008743543 -0.0073558884 0.095993966 0.05898793
0.16520418 0.09914947 0.050285373 0.20634419 0.24774407 0.45011988 0.432901 0.24118973
0.3458986 0.24049369 0.3366125 0.29734862 0.12131033 0.31661463 0.28293097 0.24372526
0.11611546 0.18877752 0.2554602 -0.1602837 -0.16716424 -0.15573707 0.12553856 -0.01619109
-0.35595995 -0.47580987 -0.32344756 0.00050302123 -0.15364264 -0.16236056 -0.035723045 -0.06931693
-0.2514633 -0.22228496 -0.20031713 -0.2954925 -0.3638035 -0.2108032 -0.049385235 -0.3494963
-0.30158556 -0.28309208 -0.12680738 0.17537293 -0.17671633 -0.5909392 -0.42058668 -0.19348887
0.14741474 -0.15022177 -0.41268012 -0.29908255 0.12723716 0.039657313 -0.108013876 0.08037491
-0.13109931 0.032462794 -0.04967203 -0.09225292 -0.09143112 -0.15583533 0.058862805 0.36516908
0.017652167 -0.07455292 -0.07033608 0.09881662 0.2898938 0.007202594 -0.111680634 -0.09838135
0.25420523 0.50114715 -0.023795677 -0.17108287 -0.015180233 0.48835135 -0.09133507 -0.17710005
-0.24494329 -0.05786119 -0.21787344 -0.27282724 -0.21913546 -0.18603082 -0.13918333 -0.024316287
0.26095334 0.17113003 0.34948662 0.19189839 0.15919417 0.0684755 0.10512289 0.07322101
0.16492732 0.21508117 0.13319162 -0.020251432 -0.16281536 -0.10366286 -0.060121913 -0.0494578
-0.19821832 -0.11112137 -0.29519758 -0.091928385 -0.20689136 -0.25256225 -0.02217493 -0.032500435
-0.09466635 0.16500522 0.12409822 0.36862656 0.17442994 0.1929206 0.11784115 0.06544106
0.1787679 0.069453046 0.07099553 0.061255876 -0.15749303 -0.06972877 -0.10413287 -0.18309188
-0.06520755 0.052766554 -0.0152241895 -0.0588272 -0.065237574 -0.08986468 -0.11332551 -0.045913793
-0.069748454 -0.024369245 0.20112793 0.32969818 0.2623722 0.2222606 0.2009164 0.16932712
0.15090755 0.1781796 0.04538855 0.07993773 0.0048805787 -0.074343964 -0.056916755 -0.23347956
0.006557757 -0.049970377 -0.16409811 -0.11270967 -0.14292899 0.025954839 -0.106220834 -0.22344543
-0.24989262 -0.21598646 -0.14616296 -0.14108494 -0.24305953 -0.19712655 -0.07361201 -0.20012651
-0.064184874 -0.17772442 -0.049250558 -0.04957552 -0.0017998763 -0.056891643 -0.067624904 -0.08952627
-0.11436823 -0.15932067 -0.15036406 0.04876119 0.0687703 0.080747895 -0.018681165 -0.085426286
00000000: 7f2f d3bd ab95 b7bd dc92 30be 6261 a6bb
00000010: 8509 883d 99c7 86bd cb15 793c 5f76 c43c
00000020: 2a21 26bd bc3d 80bd d75e adbd d4ab f33d
00000030: 2597 c03d 278a d5bd ace3 03bd 9337 f53c
00000040: bdaf 9c3d 4545 d9bd 1e5f 2ebb 58a4 d9bd
00000050: dbec 89bd f1ac f63d da2f 8abd 5f0f babb
00000060: 172e 91bd c074 0ebe 6cb7 cebd e11c 913d
00000070: 9ffc ea3d e024 a3bc 13c4 95bd 7f5a 15be
00000080: 52e2 113c 387a c83d 7658 433d 0651 52bd
00000090: 007f b5bd f49b 9f3d 371c f23d 61b0 13bd
000000a0: 4b1e f4bc a1a5 c03d b1dd d8ba 45ee 1b3d
000000b0: 382e b8bc 0d77 e63c 719d 57bd 2c84 acbd
000000c0: 65fd 09be 9d8b 0bbe ab8c 59bc 7d19 433e
000000d0: 84df 8c3e 4664 a83e 4c91 9b3e 5d8c a83d
000000e0: e763 2c3e 4289 873e b7f9 873e fec9 353e
000000f0: 36eb 3c3e 8838 103e e724 833d bb75 c23d
00000100: b045 153e 9067 8c3d e204 5c3d b77c 4c3e
00000110: 1441 0f3c aa09 f1bb 7c98 c43d 549d 713d
00000120: 492b 293e e10e cb3d 09f8 4d3d e44b 533e
00000130: 9fb0 7d3e 1d76 e63e 33a5 dd3e 71fa 763e
00000140: 9f19 b13e fa43 763e 7958 ac3e 143e 983e
00000150: 8d71 f83d 501b a23e 54dc 903e 1d93 793e
00000160: f1cd ed3d e54e 413e aecb 823e 6921 24be
00000170: 1a2d 2bbe 8a79 1fbe 2e8d 003e 2da3 84bc
00000180: 6240 b6be 5a9d f3be eb9a a5be 2fdd 033a
00000190: 7f54 1dbe d941 26be 5452 12bd 09f6 8dbd
000001a0: ccbf 80be ab9e 63be ef1f 4dbe cb4a 97be
000001b0: 7444 babe cbdc 57be 2c48 4abd 2ef1 b2be
000001c0: 6c69 9abe 72f1 90be cbd9 01be f694 333e
000001d0: 20f5 34be cb47 17bf 2357 d7be f221 46be
000001e0: e4f3 163e bcd3 19be cf4a d3be 5921 99be
000001f0: 754a 023e b56f 223d 6136 ddbd 9a9b a43d
00000200: e63e 06be b5f7 043d e674 4bbd 19ef bcbd
00000210: 3d40 bbbd 4c93 1fbe 201a 713d 71f7 ba3e
00000220: 479b 903c 34af 98bd 5d0c 90bd 5e60 ca3d
00000230: f66c 943e bd03 ec3b d1b8 e4bd 297c c9bd
00000240: 3027 823e 2e4b 003f 27ef c2bc 5930 2fbe
00000250: 83b6 78bc 3009 fa3e e20d bbbd b759 35be
00000260: 6ad2 7abe dbff 6cbd 371a 5fbe 03b0 8bbe
00000270: 0c65 60be dd7e 3ebe 1386 0ebe f332 c7bc
00000280: ad9b 853e b63c 2f3e e9ef b23e 0381 443e
00000290: cc03 233e e23c 8c3d ab4a d73d e6f4 953d
000002a0: b5e2 283e 3d3e 5c3e 6263 083e 55e6 a5bc
000002b0: 12b9 26be 324d d4bd 6542 76bd 4394 4abd
000002c0: bef9 4abe 9a93 e3bd 2324 97be f344 bcbd
000002d0: 54db 53be d74f 81be 33a8 b5bc 2d1f 05bd
000002e0: 6ee0 c1bd 21f7 283e 3527 fe3d 9fbc bc3e
000002f0: c39d 323e fa8c 453e b356 f13d f605 863d
00000300: ef0e 373e 663d 8e3d 1b66 913d 71e7 7a3d
00000310: da45 21be f5cd 8ebd 9d43 d5bd 707c 3bbe
00000320: 898b 85bd be21 583d e16e 79bc caf4 70bd
00000330: 479b 85bd f90a b8bd 3417 e8bd 1a10 3cbd
00000340: 47d8 8ebd 03a2 c7bc 7bf4 4d3e 33ce a83e
00000350: a655 863e 4898 633e 07bd 4d3e 1764 2d3e
00000360: 8287 1a3e b774 363e 58e9 393d 65b6 a33d
00000370: 43ed 9f3b a641 98bd 8b21 69bd 4415 6fbe
00000380: 74e2 d63b bdad 4cbd 5609 28be 54d4 e6bd
00000390: fa5b 12be 3e9f d43c 4f8a d9bd e1ce 64be
000003a0: dae3 7fbe 8e2b 5dbe beab 15be 9278 10be
000003b0: 99e4 78be 8bdb 49be e5c1 96bd f7ed 4cbe
000003c0: 5c73 83bd 64fd 35be f4ba 49bd b30f 4bbd
000003d0: d4e9 ebba 3607 69bd ed7e 8abd 8d59 b7bd
000003e0: e439 eabd f524 23be 09f9 19be d0b9 473d
000003f0: 71d7 8c3d 275f a53d 3e09 99bc faf3 aebd

conv1.bias f4 [6]
-0.13370483 -0.47683477 -0.38159457 0.6137542 0.31228724 -0.2999469
00000000: ebe9 08be b023 f4be 5d60 c3be ff1e 1d3f
00000010: 1de4 9f3e a492 99be

conv2.weight f4 [16, 6, 5, 5]
0.016937397 -0.055204954 0.01456842 0.01520463 -0.01038914 -0.057098612 -0.09464491 -0.10621837
0.044738505 0.025299571 -0.0633796 -0.04174868 -0.0102793425 -0.018449279 0.018488105 -0.1342328
-0.042012904 -0.05666694 0.022250826 -0.06745114 -0.014382015 0.07032691 0.066222124 0.07433603
0.03628334 -0.036798168 -0.10874585 -0.13711394 -0.15644698 -0.06302265 -0.04657048 -0.023960484
-0.07727837 -0.04338602 0.067557015 -0.11275682 -0.20714107 -0.19663201 -0.14802669 -0.16955979
-0.0356815 -0.05503016 -0.1476161 -0.09560523 -0.010735552 0.16479684 0.12864801 0.17350133
0.10395413 0.060990997 0.027618023 0.01494174 0.0013599866 -0.04881882 0.06787341 0.011894038
0.12803638 0.07102892 -0.012900575 -0.0030710713 -0.0002825583 -0.088513955 -0.14084773 -0.046260756
-0.08366328 0.13990924 0.13865039 0.10387692 0.13266091 -0.056726623 0.009704035 -0.05944316
0.011504131 -0.056919646 0.059808888 -0.10819198 -0.016744269 0.04606079 0.025506606 -0.036769338
-0.11929213 -0.007139372 -0.007942392 -0.010928288 -0.12269778 0.0841974 0.012020783 0.011386441
-0.078293964 -0.027014889 -0.046525873 0.028633092 0.13985953 0.053362526 -0.008980028 0.029312853
0.07051493 0.06994495 0.016202936 0.02626076 0.034875043 0.1119327 -0.05839066 0.07167424
0.02369288 -0.05912352 0.0486204 0.010681792 -0.031573676 0.07640743 -0.090142824 -0.16380236
-0.1481375 -0.08632434 -0.101983465 0.034131654 0.014573474 -0.08798935 -0.021681158 -0.08235561
0.10337735 0.041952737 0.017131021 0.07733853 0.042286593 0.15745603 0.06842533 0.1381664
0.07930909 0.08685535 0.072571315 -0.053706184 0.033045888 -0.054857377 0.13561057 0.15893357
0.1722436 0.25414643 0.17553836 0.008911973 0.0988385 -0.09046447 -0.18630001 -0.10792306
0.020901404 0.17338778 0.22314604 0.25753066 0.18463635 0.119315036 -0.031124495 -0.12668732
-0.020970108 -0.10515889 -0.1412101 -0.05677493 -0.061004415 -0.017700639 -0.032067534 -0.1162135
0.023891235 -0.058429163 -0.0231832 -0.0042126025 -0.13741063 -0.054388586 -0.13893864 -0.13628171
-0.04294357 -0.09664762 -0.14196369 -0.10795963 -0.06229705 -0.15637624 -0.048431147 -0.10799393
-0.031263165 -0.027565517 -0.10691765 0.13345426 -0.06539112 0.045471225 -0.054452408 0.074959345
0.06275541 -0.08221507 -0.016955344 0.04073782 0.1728894 0.08352557 -0.0137872435 0.22270162
0.32005638 0.060201664 -0.1616691 0.045949437 -0.030641677 -0.06883339 0.009864671 -0.037267834
-0.061651938 -0.037802096 0.0587478 0.04670816 -0.04018977 -0.10153835 -0.09636132 -0.011156059
0.00023281062 -0.010964259 -0.09293634 0.02461085 -0.10245363 -0.020755533 -0.11312599 -0.027058426
-0.032601908 -0.12033873 -0.060205318 0.018264472 -0.028064955 0.0075970558 0.09234414 0.0818555
0.17606306 0.014011728 0.119796306 0.029221667 -0.0054496923 0.049171746 0.11667148 0.05177965
0.015681265 0.10615766 0.093443274 0.07046195 0.030372435 -0.050544478 -0.008810887 0.116796605
0.1361476 0.032710012 0.03488405 0.03282309 0.11517751 0.145234 -0.028311387 -0.049951266
-0.071216494 0.04516125 -0.20845075 -0.10567532 -0.1776448 -0.1715 -0.10898055 -0.07589537
00000000: 4cc0 8a3c 971e 62bd 62b0 6e3c d71c 793c
00000010: 3637 2abc 3ce0 69bd 31d5 c1bd 0489 d9bd
00000020: b93f 373d 0c41 cf3c 2acd 81bd aa00 2bbd
00000030: b06a 28bc f122 97bc 5e74 973c 5374 09be
00000040: b915 2cbd 981b 68bd 5d47 b63c d323 8abd
00000050: 8ba2 6bbc 8e07 903d 779f 873d 7d3d 983d
00000060: d79d 143d adb9 16bd 25b6 debd 9967 0cbe
00000070: a333 20be 0512 81bd b0c0 3ebd c748 c4bc
00000080: 1f44 9ebd 8ab5 31bd 555b 8a3d 0ced e6bd
00000090: ca1c 54be e759 49be 4f94 17be 15a1 2dbe
000000a0: c426 12bd 4e67 61bd ad28 17be adcc c3bd
000000b0: 2be4 2fbc 81c0 283e 4ebc 033e 55aa 313e
000000c0: e7e5 d43d b2d1 793d 313f e23c 33ce 743c
000000d0: 9441 b23a 3ef6 47bd 3701 8b3d 36df 423c
000000e0: f81b 033e 9c77 913d ef5c 53bc 0744 49bb
000000f0: 5524 94b9 ce46 b5bd 633a 10be eb7b 3dbd
00000100: a757 abbd 5e44 0f3e 5efa 0d3e 6cbd d43d
00000110: 43d8 073e 2d5a 68bd acfd 1e3c ac7a 73bd
00000120: d37b 3c3c 9324 69bd 2afa 743d c293 ddbd
00000130: 472b 89bc 3daa 3c3d 3bf3 d03c 729b 16bd
00000140: 6f4f f4bd 65f1 e9bb ce20 02bc 900c 33bc
00000150: f948 fbbd b06f ac3d d1f2 443c 328e 3a3c
00000160: 9658 a0bd 544e ddbc ea91 3ebd f28f ea3c
00000170: 5637 0f3e aa92 5a3d f820 13bc 8221 f03c
00000180: 226a 903d 4c3f 8f3d 05bc 843c ce20 d73c
00000190: 22d9 0e3d f93c e53d 0b2b 6fbd f2c9 923d
000001a0: 9217 c23c 812b 72bd 2f26 473d af02 2f3c
000001b0: 6653 01bd 807b 9c3d cd9c b8bd cebb 27be
000001c0: 5bb1 17be d1ca b0bd b5dc d0bd a2cd 0b3d
000001d0: 95c5 6e3c c333 b4bd af9c b1bc 0faa a8bd
000001e0: 81b7 d33d a2d6 2b3d 5b56 8c3c aa63 9e3d
000001f0: b534 2d3d 273c 213e 9422 8c3d 7e7b 0d3e
00000200: ce6c a23d 38e1 b13d 45a0 943d 04fb 5bbd
00000210: 205b 073d 21b2 60bd 7fdd 0a3e 7bbf 223e
00000220: a060 303e 7b1f 823e 54c0 333e 8603 123c
00000230: d76b ca3d 7045 b9bd 6ec5 3ebe c406 ddbd
00000240: 6c39 ab3c 918c 313e 6580 643e 0fdb 833e
00000250: 5011 3d3e 715b f43d ccf8 febc 52ba 01be
00000260: 81c9 abbc 8b5d d7bd 6199 10be d48c 68bd
00000270: c4df 79bd ee00 91bc 3f59 03bd 5801 eebd
00000280: 8db7 c33c 6b53 6fbd b2ea bdbc df09 8abb
00000290: 5fb5 0cbe 91c6 5ebd ee45 0ebe 6f8d 0bbe
000002a0: 99e5 2fbd 30ef c5bd ee5e 11be f019 ddbd
000002b0: 312b 7fbd 1821 20be bd5f 46bd ec2b ddbd
000002c0: ce0d 00bd 14d1 e1bc a4f7 dabd 3ca8 083e
000002d0: c8eb 85bd 0940 3a3d 7d09 5fbd 4984 993d
000002e0: e985 803d 6060 a8bd efe5 8abc b3dc 263d
000002f0: eb09 313e 740f ab3d e4e3 61bc e50b 643e
00000300: 6ede a33e 0596 763d 968c 25be 7a35 3c3d
00000310: 4104 fbbc 85f8 8cbd 6e9f 213c 28a6 18bd
00000320: be86 7cbd 5fd6 1abd 88a1 703d 0e51 3f3d
00000330: 079e 24bd 57f3 cfbd 1559 c5bd e7c7 36bc
00000340: a01e 7439 6fa3 33bc 6855 bebd b19c c93c
00000350: 35d3 d1bd 8207 aabc 99ae e7bd a2a9 ddbc
00000360: 9489 05bd 2774 f6bd da99 76bd 609f 953c
00000370: 7ae8 e5bc b9f0 f83b ed1e bd3d dba3 a73d
00000380: e049 343e 7291 653c c457 f53d 4762 ef3c
00000390: 5593 b2bb 5068 493d 75f1 ee3d e616 543d
000003a0: ff75 803c 3069 d93d 305f bf3d 5b4e 903d
000003b0: 9dcf f83c ba07 4fbd 8a5b 10bc 0f33 ef3d
000003c0: 476a 0b3e effa 053d 94e2 0e3d 8171 063d
000003d0: 30e2 eb3d 39b8 143e 48ed e7bc b399 4cbd
000003e0: f4d9 91bd 01fb 383d 1d74 55be 4d6c d8bd
000003f0: 85e8 35be b29d 2fbe 3231 dfbd 086f 9bbd

conv2.bias f4 [16]
-0.32955983 -0.03606752 0.007295426 -0.25571942 0.37612808 -0.05165926 -0.35881305 1.2114356
-0.47951427 0.05828523 -0.17542584 1.0692093 -0.20137975 -0.48638543 -0.18177037 0.33559018
00000000: 11bc a8be 89bb 13bd 780e ef3b a8ed 82be
00000010: dc93 c03e a998 53bd 58b6 b7be 5210 9b3f
00000020: e582 f5be 7ebc 6e3d d5a2 33be dadb 883f
00000030: 7e36 4ebe 8307 f9be 0322 3abe 7ad2 ab3e

fc1.weight f4 [120, 400]
0.053973097 -0.009509348 0.02924641 -0.00068749476 0.042319912 0.09115344 0.015084201 -0.090429425
-0.08562681 -0.025280971 0.035477776 0.005963019 -0.024739662 -0.065394 -0.0072749164 0.04579129
-0.0077102273 0.079140544 -0.018876027 0.03629744 0.028378872 -0.041023485 0.04490205 -0.04877314
0.013345507 -0.056101177 -0.043288328 -0.046782266 -0.017730083 0.020603502 0.009554995 -0.0418557
-0.010285719 -0.0026819769 -0.015772713 0.053215366 0.05275414 -0.011327235 0.024668183 0.006869186
0.040802933 0.006739076 0.0109739015 -0.010434395 -0.060091756 0.012670591 -0.019202199 0.011225509
0.019241877 0.02406561 0.075342424 -0.0013992892 -0.0039920746 -0.029758615 0.032722604 0.06839322
0.003991142 -0.07330134 -0.03241991 0.02304733 -0.00655715 -0.004556511 -0.024617404 -0.01220564
0.04769434 0.06626365 0.058962055 0.1047156 0.08234426 0.062376946 0.08819149 -0.02584507
0.095728695 0.053675175 -0.0022797436 0.004655516 -0.006138093 -0.038203426 0.016346782 -0.0045354
-0.03216471 -0.015592025 -0.05282434 0.023643488 0.067133464 0.020533897 -0.0522252 -0.048594765
0.0046205027 -0.0086101005 -0.06706744 -0.00031689604 0.016034639 0.05670769 -0.04341655 -0.121480934
-0.13003339 -0.12652454 -0.08043169 -0.075388335 -0.05629325 -0.025427433 -0.01593939 0.030547962
-0.023367893 0.020116203 -0.050431482 -0.017205764 0.022134103 -0.0015646818 -0.031727254 0.018377727
-0.027629571 -0.09597946 0.03339711 -0.05390498 0.014999574 -0.12521476 -0.10488998 0.066778794
0.0026795776 0.07464094 -0.016331064 -0.00081205094 -0.022787351 0.116997525 0.061816387 0.046951972
0.023711344 0.046882886 0.10949424 0.06820284 0.06753491 -0.00780229 -0.02758832 0.04004911
-0.008836453 0.0240136 0.04855226 -0.011380762 -0.078316584 0.0031023435 -0.051843606 -0.016644036
-0.07380328 -0.17424506 -0.13866283 -0.039285935 -0.108689345 -0.12983729 0.108248815 0.056800473
0.051190656 0.017990522 0.037647042 0.13085935 -0.005137121 0.004601885 0.041662216 0.057945058
-0.04428881 -0.019153098 -0.085827745 0.004058873 0.033575345 0.011308782 -0.020274289 -0.023216797
-0.11012598 -0.03875978 -0.12221231 -0.024647297 -0.011390124 -0.054013636 -0.055316266 -0.062845334
-0.08280301 -0.10488891 0.014717202 -0.0477911 0.0008370915 0.019292451 0.003613441 0.039430965
-0.08310866 0.04507779 -0.029194204 -0.072621405 -0.05211409 -0.01165789 -0.011284647 -0.0060700295
-0.08549069 -0.03761657 0.0558913 0.0077861906 -0.0015495232 -0.031414103 -0.028796788 -0.01202114
0.03940211 0.0062951916 -0.049050882 0.012700943 0.011831816 -0.004727561 -0.034022972 -0.027771413
-0.06559997 -0.01564381 0.033689357 -0.010937295 -0.039677043 -0.018313061 0.018211646 0.018328454
-0.028624415 -0.054064497 -0.028421069 0.004139601 -0.0048473114 0.06937991 0.04505382 -0.0060732015
0.07170185 0.08148093 0.08599877 0.08783826 0.116178654 0.142725 0.021378955 -0.0016559861
0.0042590965 0.020483105 0.053642116 0.030047243 0.00015971686 0.0041849758 -0.009618593 -0.034777313
-0.061503693 -0.020670377 0.02865836 -0.033036668 -0.025925692 -0.07255437 -0.081227385 -0.038268156
-0.06605022 -0.13578254 -0.012293985 -0.017489662 0.0072894907 -0.028234908 -0.00027021265 -0.001003331
00000000: e512 5d3d 19cd 1bbc 2b96 ef3c fe38 34ba
00000010: a557 2d3d a8ae ba3d b923 773c 1033 b9bd
00000020: 1c5d afbd 0a1a cfbc 2551 113d 6e65 c33b
00000030: d5aa cabc 4aed 85bd 6c62 eebb a68f 3b3d
00000040: 13a6 fcbb 7014 a23d e6a1 9abc a0ac 143d
00000050: cf7a e83c 3e08 28bd 36eb 373d 58c6 47bd
00000060: 1da7 5a3c 59ca 65bd 1a4f 31bd c39e 3fbd
00000070: ae3e 91bc adc8 a83c 8e8c 1c3c e270 2bbd
00000080: 6f85 28bc 1bc4 2fbb c735 81bc 5bf8 593d
00000090: ba14 583d de95 39bc ee14 ca3c e916 e13b
000000a0: fa20 273d 78d3 dc3b e1cb 333c 06f5 2abc
000000b0: c622 76bd 4f98 4f3c ee4d 9dbc 33eb 373c
000000c0: 24a1 9d3c 3e25 c53c 214d 9a3d 5b68 b7ba
000000d0: f3cf 82bb 57c8 f3bc 2308 063d bf11 8c3d
000000e0: 20c8 823b 031f 96bd bdca 04bd c1cd bc3c
000000f0: 5cdd d6bb c94e 95bb 70aa c9bc 2afa 47bc
00000100: 245b 433d 3db5 873d 3282 713d 2275 d63d
00000110: 1ba4 a83d f87e 7f3d bd9d b43d 0ab9 d3bc
00000120: 680d c43d 80da 5b3d c067 15bb 4c8d 983b
00000130: 0e22 c9bb 327b 1cbd b0e9 853c b19d 94bb
00000140: 25bf 03bd b175 7fbc 565e 58bd fdaf c13c
00000150: 457d 893d b436 a83c 17ea 55bd 4e0b 47bd
00000160: 9667 973b 6111 0dbc a75a 89bd 1125 a6b9
00000170: 135b 833c 5346 683d 8dd5 31bd ffca f8bd
00000180: 7927 05be a68f 01be 5fb9 a4bd 3365 9abd
00000190: c093 66bd 314d d0bc 5393 82bc b83f fa3c
000001a0: 066e bfbc bcca a43c 3e91 4ebd 1af3 8cbc
000001b0: 9452 b53c 0216 cdba 70f4 01bd e38c 963c
000001c0: 6957 e2bc e190 c4bd 68cb 083d 78cb 5cbd
000001d0: c6c0 753c 4c38 00be 8fd0 d6bd 52c3 883d
000001e0: da9b 2f3b 59dd 983d b9c8 85bc d1df 54ba
000001f0: 8aac babc 669c ef3d 2e33 7d3d b650 403d
00000200: 4b3e c23c 4508 403d 843e e03d eead 8b3d
00000210: be4f 8a3d 5aaa ffbb e700 e2bc 890a 243d
00000220: c5c6 10bc 2bb8 c43c bcde 463d 6076 3abc
00000230: 7264 a0bd b050 4b3b f659 54bd 1359 88bc
00000240: 2d26 97bd 4c6d 32be a1fd 0dbe 4aea 20bd
00000250: 8598 debd 11f4 04be 8eb1 dd3d 9da7 683d
00000260: 4bad 513d dc60 933c c933 1a3d feff 053e
00000270: 4b55 a8bb 69cb 963b 00a6 2a3d cc57 6d3d
00000280: 2f68 35bd f5e6 9cbc 75c6 afbd 4b00 853b
00000290: 4d86 093d 7848 393c 4416 a6bc 2731 bebc
000002a0: bb89 e1bd 93c2 1ebd 734a fabd 21e9 c9bc
000002b0: a59d 3abc 673d 5dbd 4f93 62bd 0eb5 80bd
000002c0: a094 a9bd ffcf d6bd 6b20 713c 9ac0 43bd
000002d0: 4270 5b3a 340b 9e3c 7bcf 6c3b 5d82 213d
000002e0: e034 aabd 7da3 383d af28 efbc 88ba 94bd
000002f0: 9675 55bd bc00 3fbc 3de3 38bc 19e7 c6bb
00000300: be15 afbd d513 1abd 47ee 643d 4d23 ff3b
00000310: 5f19 cbba 13ac 00bd 3ee7 ebbc 51f4 44bc
00000320: 1b64 213d e547 ce3b 94e9 48bd 9e17 503c
00000330: 3cda 413c a8e9 9abb ac5b 0bbd e080 e3bc
00000340: 4759 86bd 7327 80bc dafd 093d 5732 33bc
00000350: 6584 22bd 4605 96bc 9730 953c 8e25 963c
00000360: c07d eabc bc72 5dbd 4dd3 e8bc 7da5 873b
00000370: 32d6 9ebb 0e17 8e3d 5b8a 383d b501 c7bb
00000380: 6bd8 923d 79df a63d 2020 b03d 8ce4 b33d
00000390: 13ef ed3d 8126 123e eb22 af3c ac0d d9ba
000003a0: e48f 8b3b 2fcc a73c d6b7 5b3d a325 f63c
000003b0: ab79 2739 1f22 893b 4e97 1dbc a872 0ebd
000003c0: 4ceb 7bbd ec54 a9bc f0c4 ea3c 7551 07bd
000003d0: 1e62 d4bc 6397 94bd 8b5a a6bd 12bf 1cbd
000003e0: 5645 87bd 940a 0bbe b66c 49bc 7b46 8fbc
000003f0: aedc ee3b e54c e7bc 54ab 8db9 3482 83ba

fc1.bias f4 [120]
0.012186875 0.1991988 0.006962879 0.14170356 -0.15223263 0.03546644 -0.009061561 -0.035836533
0.050393913 0.009028083 -0.074912146 -0.050357684 0.102405116 0.20755555 0.031812724 0.08471433
0.06979916 -0.009546449 0.040292054 0.10177137 -0.043502677 0.0021074242 -0.011069482 0.116834395
0.09568695 0.02527799 0.13074028 -0.024716401 -0.007822607 -0.023979029 -0.03357497 0.012082423
-0.048191946 -0.044173133 -0.00650863 0.0229756 0.024113411 0.0007784973 -0.021742838 0.03397147
0.14206778 0.07530217 0.03043204 -0.04049248 0.07672356 -0.03924065 -0.029060513 0.06508139
0.0025800266 0.0070903683 -0.041474298 0.022947472 0.12033536 0.035691872 0.06638944 0.028787319
0.018443847 0.16155496 0.18336701 0.2561768 0.09366824 -0.055940274 0.074852824 -0.08883798
0.03412832 0.007580433 0.016120844 0.08321255 0.18625072 -0.031198362 0.073909946 0.04685857
0.04266428 -0.08672197 -0.03919386 -0.0049670287 0.02959814 0.0033461899 0.06147007 0.043424603
0.028839951 -0.010492873 -0.029200071 0.024119446 -0.09855872 0.041241486 -0.0237214 -0.11385936
-0.022532001 -0.052592695 -0.05152108 0.00012550838 0.08338418 -0.005215537 -0.27612072 0.007813976
0.086113885 0.06608912 0.26076928 0.009729836 -0.017051276 0.06622749 0.029241936 -0.035023876
-0.023570716 0.025456442 0.12536053 0.06950396 0.005186257 0.02561545 -0.07772487 0.12900856
-0.105193704 -0.20072488 0.099734135 0.010782323 -0.037145503 -0.011520961 0.07902508 -0.053774826
00000000: 75ab 473c c5fa 4b3e dd28 e43b bd1a 113e
00000010: dfe2 1bbe 4245 113d f176 14bc 54c9 12bd
00000020: d969 4e3d 86ea 133c 8a6b 99bd dc43 4ebd
00000030: c6b9 d13d 7189 543e 0f4e 023d b57e ad3d
00000040: ddf2 8e3d b668 1cbc 4809 253d 826d d03d
00000050: dd2f 32bd b61c 0a3b c65c 35bc df46 ef3d
00000060: 85f7 c33d ca13 cf3c c8e0 053e 0d7a cabc
00000070: 642a 00bc ab6f c4bc e885 09bd 5bf5 453c
00000080: eb64 45bd e3ee 34bd 5846 d5bb 5337 bc3c
00000090: 7d89 c53c 1214 4c3a 091e b2bc ab25 0b3d
000000a0: 377a 113e 0638 9a3d 9d4c f93c 71db 25bd
000000b0: 3e21 9d3d ceba 20bd 5010 eebc 6449 853d
000000c0: aa15 293b 5256 e83b f4e0 29bd 56fc bb3c
000000d0: 6372 f63d a431 123d 30f7 873d 62d3 eb3c
000000e0: 8d17 973c aa6e 253e 90c4 3b3e 9b29 833e
000000f0: 22d5 bf3d a121 65bd 704c 993d b0f0 b5bd
00000100: 23ca 0b3d 4865 f83b dc0f 843c 576b aa3d
00000110: 82b8 3e3e b593 ffbc 195e 973d c6ee 3f3d
00000120: bdc0 2e3d 4a9b b1bd be89 20bd 75c2 a2bb
00000130: cc77 f23c c04b 5b3b 0ac8 7b3d ffdd 313d
00000140: c341 ec3c 4dea 2bbc fd34 efbc 2596 c53c
00000150: 27d9 c9bd d5ec 283d 6253 c2bc 192f e9bd
00000160: 0895 b8bc 706b 57bd c507 53bd e69a 0339
00000170: 53c5 aa3d 18e7 aabb b25f 8dbe 3106 003c
00000180: 7a5c b03d bc59 873d 8d83 853e e469 1f3c
00000190: 1eaf 8bbc 47a2 873d c98c ef3c 3275 0fbd
000001a0: 6017 c1bc 078a d03c 835e 003e 1858 8e3d
000001b0: 7af1 a93b 7ed7 d13c 372e 9fbd d21a 043e
000001c0: cc6f d7bd d38a 4dbe 6941 cc3d 57a8 303c
000001d0: e225 18bd 6ac2 3cbc e7d7 a13d fe42 5cbd

fc2.weight f4 [84, 120]
0.0063191545 0.091599785 -0.028423881 -0.013284459 0.036717705 0.08190489 -0.0715686 0.002003517
0.05981574 -0.05889097 -0.05872168 -0.06616783 0.03407892 0.04414737 0.01714893 -0.017126946
-0.028640203 -0.061059378 0.021672027 -0.0327245 -0.053661864 -0.059114113 -0.035233498 -0.049898725
-0.09556534 0.023965236 0.026207754 0.057750024 0.07075225 0.02023367 0.04748231 -0.06997616
-0.08565092 -0.027326657 -0.022130523 -0.017587978 -0.14732242 -0.039808992 -0.022627966 -0.022555413
-0.0718771 0.0090216305 -0.12483484 0.013625301 -0.0134873465 0.074889965 -0.0067807375 0.11175415
-0.06602068 -0.042805035 0.015040715 0.08449013 0.056269456 0.020283803 0.029479729 0.013656581
0.059513237 -0.061504547 0.1050272 0.09505489 -0.03814104 0.022510901 -0.09038477 0.04226655
-0.045222633 0.02208651 0.04865739 -0.066720955 -0.01278532 0.06905767 0.033162884 -0.019996703
-0.04682676 0.035662178 0.06559061 -0.0153111685 -0.06786639 -0.046004318 -0.07621879 0.068744525
-0.07980244 -0.12476931 -0.11736091 -0.091408156 0.043750573 0.012295244 0.086524785 0.041721225
0.10123863 -0.02070977 0.17076725 -0.02229463 0.05299034 -0.011019005 -0.06961473 0.06610204
-0.0575556 0.10303002 -0.021850118 -0.060748715 0.04653471 0.103952765 -0.07289992 0.017922038
0.032322273 -0.04812277 -0.030097345 -0.08069789 0.035336647 -0.07369762 -0.04023942 -0.03351483
-0.08767384 -0.014346946 -0.007438384 0.06276003 -0.0074383095 0.028988676 -0.036150195 0.034864917
0.08104433 -0.013929831 -0.033947207 -0.07406284 -0.087925695 -0.026552029 -0.031212782 -0.015373986
0.09347452 0.06101816 -0.053883564 -0.03701669 -0.079911724 0.029191313 -0.0570119 0.008102317
0.1840819 0.013125689 0.09498986 0.02002645 -0.0066960244 0.049370885 -0.079582445 -0.09706572
0.068819396 -0.026931927 -0.01221735 0.0032519635 0.067031674 -0.035566036 -0.049119957 0.021559233
0.0022291767 -0.011819282 -0.018574148 -0.00878176 -0.06297083 0.10241606 -0.06320955 0.006826881
-0.057860017 -0.0035306264 -0.05247912 0.13959022 0.076508656 -0.039648388 0.05023601 -0.09903957
0.022259492 0.05980887 0.023806041 0.15814756 -0.048561163 -0.0054729083 0.06590171 -0.087506555
-0.033508375 -0.07129433 0.06816784 0.022080705 0.03297328 -0.043499846 -0.08053862 -0.12616763
0.006332287 -0.064518 -0.058088686 -0.0637613 0.077472284 0.020463401 0.081561424 0.0629701
-0.13552527 -0.079178 0.05533395 0.012848466 -0.09832264 -0.052190132 0.046775382 0.031228496
-0.097508006 0.03319251 -0.062434714 -0.060956646 -0.10026592 0.07346332 -0.019526144 0.032300085
0.015429489 0.08266422 -0.020339223 0.032093782 -0.05145715 0.08945102 -0.07518112 -0.061710235
-0.029379152 0.07604794 0.054649327 0.02138401 0.0591338 -0.033845134 -0.090548486 -0.0120931985
0.00515139 -0.022648472 0.060684524 -0.023277134 -0.018247439 0.010479787 -0.003997858 0.08222444
0.02694618 -0.061096698 0.05180108 0.05906571 0.062347047 0.05683606 0.07064012 -0.045767203
0.07416512 0.064552605 -0.020256655 0.03833333 0.020294826 -0.07010923 0.0027316108 0.0026170283
-2.0443315e-06 -0.107713886 -0.0645633 0.04333654 0.008840114 0.04351091 0.01353796 -0.018899897
00000000: e910 cf3b ab98 bb3d 33d9 e8bc 0fa7 59bc
00000010: 4e65 163d c0bd a73d 8f92 92bd 704d 033b
00000020: 5901 753d a837 71bd 2586 70bd 0083 87bd
00000030: 5696 0b3d dfd3 343d ea7b 8c3c cf4d 8cbc
00000040: dc9e eabc 6619 7abd 8989 b13c 200a 06bd
00000050: 8bcc 5bbd a421 72bd 0051 10bd 9b62 4cbd
00000060: c3b7 c3bd be52 c43c a5b1 d63c 4a8b 6c3d
00000070: 8ee6 903d 15c1 a53c d07c 423d a94f 8fbd
00000080: c069 afbd 27dc dfbc 124b b5bc aa14 90bc
00000090: b0db 16be c10e 23bd 495e b9bc 21c6 b8bc
000000a0: 4d34 93bd 76cf 133c 69a9 ffbd a83c 5f3c
000000b0: 08fa 5cbc e95f 993d f330 debb 5cdf e43d
000000c0: da35 87bd 5554 2fbd 556d 763c 2909 ad3d
000000d0: cd7a 663d 382a a63c 797f f13c dabf 5f3c
000000e0: 27c4 733d 31ec 7bbd 8018 d73d 23ac c23d
000000f0: c739 1cbd c868 b83c a61b b9bd b11f 2d3d
00000100: 5e3b 39bd c5ee b43c f94c 473d ffa4 88bd
00000110: 8579 51bc 1c6e 8d3d ced5 073d 20d0 a3bc
00000120: 6bcd 3fbd 8112 123d 5f54 863d b2db 7abc
00000130: 89fd 8abd 066f 3cbd 9918 9cbd eec9 8c3d
00000140: 766f a3bd 0d87 ffbd eb5a f0bd 3334 bbbd
00000150: cd33 333d fe71 493c e833 b13d e0e3 2a3d
00000160: 3356 cf3d 89a7 a9bc 9cdd 2e3e 3aa3 b6bc
00000170: 660c 593d 0f89 34bc 2b92 8ebd 8260 873d
00000180: 6cbf 6bbd 6701 d33d 05ff b2bc a5d3 78bd
00000190: 2e9b 3e3d 30e5 d43d 8e4c 95bd 3dd1 923c
000001a0: 5c64 043d 621c 45bd b58e f6bc ef44 a5bd
000001b0: 29bd 103d c7ee 96bd 17d2 24bd d946 09bd
000001c0: 588e b3bd 740f 6bbc b0bd f3bb 5588 803d
000001d0: 10bd f3bb a979 ed3c 3a12 14bd 84ce 0e3d
000001e0: 92fa a53d f239 64bc 3a0c 0bbd 42ae 97bd
000001f0: 6312 b4bd a483 d9bc f3b1 ffbc 2ce3 7bbc
00000200: 926f bf3d 2eee 793d 03b5 5cbd d09e 17bd
00000210: c2a8 a3bd 9f22 ef3c 4f85 69bd 95bf 043c
00000220: f77f 3c3e 210d 573c 0b8a c23d 820e a43c
00000230: 536a dbbb 2039 4a3d 1ffc a2bd 64ca c6bd
00000240: 2ff1 8c3d 58a0 dcbc 482b 48bc e51e 553b
00000250: e747 893d b1ad 11bd 0232 49bd fd9c b03c
00000260: 6117 123b a9a5 41bc d028 98bc 5fe1 0fbc
00000270: daf6 80bd 83bf d13d 0274 81bd 07b4 df3b
00000280: a0fe 6cbd 1562 67bb 59f4 56bd bdf0 0e3e
00000290: 92b0 9c3d 5966 22bd 46c4 4d3d 42d5 cabd
000002a0: 8a59 b63c 25fa 743d e304 c33c 6ff1 213e
000002b0: 12e8 46bd 1556 b3bb 7af7 863d a336 b3bd
000002c0: 1440 09bd c302 92bd 959b 8b3d 98e2 b43c
000002d0: fd0e 073d e52c 32bd 6ff1 a4bd 1632 01be
000002e0: 137f cf3b 0322 84bd 67ee 6dbd 4995 82bd
000002f0: caa9 9e3d dda2 a73c ad09 a73d 78f6 803d
00000300: 23c7 0abe 1328 a2bd daa5 623d 5f82 523c
00000310: 615d c9bd 52c5 55bd 8b97 3f3d e7d2 ff3c
00000320: 47b2 c7bd dff4 073d 8bbb 7fbd adad 79bd
00000330: 3858 cdbd f073 963d 4bf5 9fbc 184d 043d
00000340: f8cb 7c3c dc4b a93d 719e a6bc c574 033d
00000350: bcc4 52bd 1932 b73d 8ff8 99bd dfc3 7cbd
00000360: 8cac f0bc 06bf 9b3d f9d7 5f3d 852d af3c
00000370: 4936 723d 32a1 0abd 7c71 b9bd 8d22 46bc
00000380: fecc a83b 4a89 b9bc 5690 783d b0af bebc
00000390: a77b 95bc 6ab3 2b3c 7700 83bb 4a65 a83d
000003a0: 3cbe dc3c 8840 7abd 5f2d 543d e3ee 713d
000003b0: 9e5f 7f3d eecc 683d c4ab 903d 6476 3bbd
000003c0: e2e3 973d 2834 843d 49f1 a5bc 6903 1d3d
000003d0: 5641 a63c 6e95 8fbd d304 333b 7382 2b3b
000003e0: 5931 09b6 1999 dcbd c339 84bd a881 313d
000003f0: 20d6 103c 7f38 323d 52ce 5d3c f5d3 9abc

fc2.bias f4 [84]
-0.054006264 0.13905104 0.19895558 -0.09278153 -0.023457492 0.0061181798 0.035037234 -0.017596105
-0.00016415374 0.041554492 0.008803764 0.2777618 0.13627551 0.09543454 -0.019573959 0.45879892
0.15420917 -0.031890072 0.34032664 -0.09466234 0.28595167 -0.023998326 -0.08844014 0.047303233
0.0336187 -0.05242928 0.029172147 -0.03692737 -0.097876094 0.34149498 -0.030861247 0.033085197
0.03691023 0.1518576 0.06742994 0.40400153 -0.05444035 -0.02400221 0.12271725 0.4069694
0.10634819 0.19336028 0.081391774 0.032433614 0.28788167 0.06273699 -0.07706311 0.31849447
0.2021832 0.048983566 0.054696653 0.002936923 0.19202998 0.050574943 0.002418262 0.17189765
-0.06289452 0.039254285 -0.06779402 -0.13498372 0.2029683 -0.020351347 -0.010276392 0.0309858
0.024951449 -0.082600966 0.14788933 -0.07389809 0.006431897 -0.0584847 -0.08441136 -0.014903302
-0.050558824 0.1383347 -0.057252336 -0.068105295 0.04565911 -0.014559949 -0.06541126 -0.09578012
0.079969235 0.107578926 0.22529776 0.09712914
00000000: ac35 5dbd 6563 0e3e 03bb 4b3e 3e04 bebd
00000010: ed29 c0bc 037b c83b 3483 0f3d b525 90bc
00000020: af20 2cb9 0b35 2a3d aa3d 103c cb36 8e3e
00000030: cf8b 0b3e 2f73 c33d 9159 a0bc b1e7 ea3e
00000040: 02e9 1d3e 2a9f 02bd 4b3f ae3e 54de c1bd
00000050: 4268 923e 2398 c4bc 1b20 b5bd 09c1 413d
00000060: c3b3 093d 16c0 56bd 6dfa ee3c 2741 17bd
00000070: 4373 c8bd 6ed8 ae3e bad0 fcbc 5884 073d
00000080: 2e2f 173d 8f80 1b3e b518 8a3d 4ad9 ce3e
00000090: d8fc 5ebd 48a0 c4bc 2e53 fb3d 4b5e d03e
000000a0: 14cd d93d 3d00 463e bbb0 a63d 1cd9 043d
000000b0: 3a65 933e 407c 803d 44d3 9dbd b511 a33e
000000c0: 1d09 4f3e fea2 483d 9909 603d 6479 403b
000000d0: 82a3 443e ac27 4f3d b47b 1e3b f005 303e
000000e0: d8ce 80bd 1ac9 203d 97d7 8abd 2c39 0abe
000000f0: ecd6 4f3e deb7 a6bc 505e 28bc efd5 fd3c
00000100: fb66 cc3c b22a a9bd 4d70 173e e257 97bd
00000110: aac2 d23b a78d 6fbd dddf acbd fb2c 74bc
00000120: c516 4fbd 9da7 0d3e 6d81 6abd ca7a 8bbd
00000130: 0c05 3b3d da8c 6ebc 57f6 85bd 5e28 c4bd
00000140: e9c6 a33d 5752 dc3d 75b4 663e a4eb c63d

fc3.weight f4 [10, 84]
-0.1218419 -0.046063334 -0.058620974 0.2356142 -0.019275244 0.09561452 -0.064196505 0.014510568
0.0011345192 0.047339123 0.048364155 -0.042520475 0.33230817 0.16265322 0.12026617 -0.08510297
-0.1506423 -0.08605851 -0.21189083 -0.05276164 -0.029830847 0.16057265 0.027474733 -0.036974866
0.026517387 0.0033390683 0.23569319 0.018401345 -0.028313076 -0.05346973 -0.117031954 0.20030276
-0.008765756 0.11898466 -0.16954547 -0.29271683 0.121539906 0.09498933 0.18239127 -0.08076472
-0.1562312 0.26800644 0.0846316 0.03574697 -0.13808128 -0.13388507 0.09011719 -0.09114119
-0.08778992 0.0042185984 -0.08880987 0.05252944 0.10852356 0.059431706 -0.040368043 -0.24931459
0.1996441 0.035368446 0.054033846 0.056152754 0.08314603 0.022564977 0.13182716 -0.055093583
-0.08453703 0.09907189 0.050446633 0.077021234 0.1496477 -0.105203316 -0.07740725 0.0108703775
0.0027438279 0.011313756 -0.10924575 0.07005378 0.104228176 0.007025435 0.0780022 -0.07394924
0.22456542 0.051859267 0.018882265 0.17948511 -0.13492984 0.06418137 -0.12853177 0.24080622
-0.054954093 -0.12162772 -0.17531261 0.02443083 -0.10066085 0.019033046 0.35938573 -0.23373012
-0.14943294 0.093675345 0.07051844 -0.1837756 -0.05449155 0.12167013 -0.18383496 -0.01650507
-0.17321971 0.013511652 -0.06857277 -0.08242235 0.13049385 -0.03739058 -0.24632941 0.15603268
-0.10788464 -0.22251865 0.05160564 0.2664835 0.13283643 0.053971555 -0.26647404 0.052795984
-0.19138417 0.047530327 -0.13258636 -0.3213873 0.115172036 -0.09049553 -0.13448088 0.09948354
-0.23958075 0.05667593 -0.03411376 -0.14776435 -0.08634855 0.13552663 -0.08032263 -0.028772548
0.122609444 -0.09288587 0.09056401 -0.045786545 0.15549368 0.3759998 0.0096956715 0.064373344
-0.034573328 -0.0021933822 -0.042115968 0.089058615 -0.04121983 0.13317618 -0.0018848932 0.09785932
-0.07108532 -0.070485994 -0.035042703 -0.05389625 0.21452752 -0.10067216 0.3707521 0.13965002
-0.32042345 -0.10163996 0.20384188 -0.0069657606 0.15247095 -0.10720658 -0.22141534 -0.059581805
-0.061235458 0.13938893 0.028647617 0.09768256 -0.031545676 -0.05504268 0.24951081 -0.045474865
-0.08545594 0.06378231 -0.17135955 -0.042290904 0.16561492 -0.16555944 -0.007174214 0.17231308
-0.0105388425 -0.031388406 0.11207609 -0.1009722 0.20852907 0.1039148 -0.010659998 -0.18492135
0.07305419 -0.043244693 0.076483026 -0.008500528 -0.0031938972 0.22578749 -0.121170856 -0.067719474
-0.038048737 -0.03423246 0.20215145 0.20694627 0.17409202 -0.07599328 0.30354187 0.019908136
0.15568286 0.16362193 0.07345269 -0.019440973 0.16602834 -0.071286246 0.0976588 -0.08606159
-0.16569251 0.17180249 -0.06007484 -0.12269356 -0.08368835 0.0628622 -0.07337867 -0.1856966
-0.07061175 -0.083850965 -0.026441121 0.17091778 0.16762625 0.07126887 -0.004547644 -0.19005498
0.11687535 0.04607611 0.0834201 0.11214553 0.1830954 0.040417522 0.02667216 -0.037388515
-0.12937637 -0.114208505 -0.035169993 -0.056729868 0.1386363 0.024435561 -0.01222415 0.09797377
-0.0528147 -0.1152478 -0.026348399 -0.034067076 0.07030554 -0.03259524 -0.086903706 0.046166033
00000000: 3f88 f9bd e8ac 3cbd 8c1c 70bd d944 713e
00000010: 1ee7 9dbc 8cd1 c33d 7579 83bd bcbd 6d3c
00000020: 26b4 943a abe6 413d 7e19 463d f329 2ebd
00000030: 4c24 aa3e 918e 263e 1c4e f63d 774a aebd
00000040: fa41 1abe 723f b0bd e9f9 58be 971c 58bd
00000050: d25f f4bc 286d 243e b112 e13c f572 17bd
00000060: fe3a d93c 45d4 5a3b 8e59 713e 6bbe 963c
00000070: d3f0 e7bc 1303 5bbd 73ae efbd 2b1c 4d3e
00000080: 3f9e 0fbc 3bae f33d 549d 2dbe fbde 95be
00000090: eae9 f83d c489 c23d c7c4 3a3e f967 a5bd
000000a0: 12fb 1fbe 2438 893e 5553 ad3d 6a6b 123d
000000b0: 2e65 0dbe 2b19 09be 5c8f b83d 3ba8 babd
000000c0: 34cb b3bd 2b3c 8a3b f3e1 b5bd 1c29 573d
000000d0: 9a41 de3d a96e 733d f658 25bd 534c 7fbe
000000e0: 816f 4c3e 81de 103d 9852 5d3d 6e00 663d
000000f0: 7748 aa3d 30da b83c b3fd 063e cfa9 61bd
00000100: c021 adbd 34e6 ca3d 21a1 4e3d 4fbd 9d3d
00000110: 3f3d 193e d674 d7bd b187 9ebd ab19 323c
00000120: cbd1 333b 555d 393c 3cbc dfbd 5b78 8f3d
00000130: 9575 d53d 9f35 e63b 9ebf 9f3d b372 97bd
00000140: 7af4 653e 626a 543d fbae 9a3c f2ca 373e
00000150: 0c2b 0abe 8671 833d d59d 03be e895 763e
00000160: 8b17 61bd f417 f9bd 2685 33be 2a23 c83c
00000170: 4727 cebd 31eb 9b3c 6801 b83e f356 6fbe
00000180: f304 19be dcd8 bf3d f96b 903d ac2f 3cbe
00000190: 8832 5fbd 302e f93d 3b3f 3cbe a435 87bc
000001a0: 8260 31be fa5f 5d3c e16f 8cbd 0dcd a8bd
000001b0: 2ea0 053e dd26 19bd c73d 7cbe 08c7 1f3e
000001c0: 9ff2 dcbd eedb 63be 7060 533d 8670 883e
000001d0: 4606 083e 4711 5d3d 496f 88be 9a40 583d
000001e0: 36fa 43be 29af 423d b8c4 07be e08c a4be
000001f0: 51df eb3d b855 b9bd 5bb5 09be 07be cb3d
00000200: a854 75be 0525 683d dfba 0bbd 8a4f 17be
00000210: 82d7 b0bd 7ec7 0a3e 3180 a4bd 68b4 ebbc
00000220: a91a fb3d f23a bebd a079 b93d ac8a 3bbd
00000230: bc39 1f3e 0c83 c03e 98da 1e3c 2cd6 833d
00000240: c39c 0dbd d9be 0fbb cb81 2cbd 5d64 b63d
00000250: 20d6 28bd 565f 083e 850e f7ba 786a c83d
00000260: 2e95 91bd f65a 90bd f088 0fbd 50c2 5cbd
00000270: 1aad 5b3e 352d cebd 38d3 bd3e 6a00 0f3e
00000280: 8b0e a4be 9d28 d0bd edbb 503e 0941 e4bb
00000290: 5821 1c3e 208f dbbd b4ba 62be 0d0c 74bd
000002a0: 08d2 7abd f9bb 0e3e 68ae ea3c cb0d c83d
000002b0: 0a36 01bd 6f74 61bd c37f 7f3e da43 3abd
000002c0: 8603 afbd 4da0 823d e178 2fbe 3a39 2dbd
000002d0: f596 293e 6a88 29be ab15 ebbb d772 303e
000002e0: 1cab 2cbc 2191 00bd 2688 e53d 83ca cebd
000002f0: a588 553e 48d1 d43d 46a7 2ebc 065c 3dbe
00000300: 6f9d 953d 5921 31bd 22a3 9c3d cc45 0bbc
00000310: b450 51bb d634 673e 6d28 f8bd 82b0 8abd
00000320: fed8 1bbd 5637 0cbd ca00 4f3e b9e9 533e
00000330: 2e45 323e 5da2 9bbd d769 9b3e 6316 a33c
00000340: 546b 1f3e 828c 273e 5d6e 963d ad42 9fbc
00000350: 5503 2a3e 86fe 91bd 5601 c83d 0f41 b0bd
00000360: 4cab 29be feec 2f3e 0911 76bd c346 fbbd
00000370: cc64 abbd e6bd 803d 8e47 96bd 4027 3ebe
00000380: e59c 90bd 0eba abbd 0d9b d8bc 1205 2f3e
00000390: 37a6 2b3e 6af5 913d 6704 95bb c69d 42be
000003a0: 585c ef3d 4eba 3c3d 28d8 aa3d 8eac e53d
000003b0: 5c7d 3b3e d88c 253d 937f da3c b324 19bd
000003c0: 3d7b 04be 26e6 e9bd 690e 10bd 945d 68bd
000003d0: adf6 0d3e 162d c83c cd47 48bc 79a6 c83d
000003e0: 3a54 58bd 0a07 ecbd 99d8 d7bc eb89 0bbd
000003f0: 5afc 8f3d 9682 05bd 92fa b1bd 9818 3d3d

fc3.bias f4 [10]
-0.39028913 -0.5013159 -0.12583545 0.29298827 0.5806841 -0.07081465 0.36306587 0.116546735
0.13032623 -0.29502764
00000000: fad3 c7be 3d56 00bf 02db 00be 8f02 963e
00000010: b7a7 143f 4507 91bd c5e3 b93e 0eb0 ee3d
00000020: 3d74 053e dd0d 97be
